Quantum/3/model_2023-03-10T15-52.pth (torch, 1443 bytes, 1 tensors)

linear.weight f4 [1, 53]
0	0x3bbb7eaf	0.005721889
1	0x3b689e70	0.0035494827
2	0x3b936dc6	0.00449917
3	0x3b667425	0.0035164442
4	0x3b79cca1	0.0038116353
5	0x3b9551c6	0.0045568673
6	0xbc39023a	-0.011292035
7	0x3e7b9b5f	0.24570988
8	0x3e1759dc	0.14780372
9	0x3bab9e03	0.0052373423
10	0x3b8b5b33	0.004252815
11	0x3b96a420	0.004597202
12	0x3b675ec2	0.0035304283
13	0x3e08ba81	0.13352396
14	0x3da96141	0.08270503
15	0x3d8becd9	0.068322845
16	0x3e3d491c	0.1848492
17	0x3d8f5332	0.0699829
18	0x3d99ff7c	0.07519433
19	0x3e405f2b	0.18786304
20	0x3e330e8d	0.1748602
21	0x3de75d6a	0.11297114
22	0x3e2fa8e7	0.17154275
23	0x3db0c529	0.08631355
24	0x3e091236	0.13385853
25	0x3dc6f236	0.09714167
26	0x3e3a6508	0.18202603
27	0x3e0d6b43	0.13810448
28	0x3df2f5cc	0.11863288
29	0x3df5158c	0.11967
30	0x3e12a160	0.14319372
31	0x3d69823a	0.05700896
32	0x3d6d81bc	0.057985052
33	0x3e49f1a1	0.1972108
34	0x3d7cf3c3	0.061755907
35	0x3df5130a	0.11966522
36	0x3e148279	0.14502896
37	0x3e5391d2	0.20661095
38	0x3db2d8ab	0.087327324
39	0x3df8281a	0.12117024
40	0x3e22d2f1	0.1590078
41	0x3deb547e	0.11490725
42	0x3df8642e	0.12128483
43	0x3dfcc558	0.12342328
44	0x3d32eb5a	0.04368148
45	0x3e18161e	0.14852187
46	0x3d0c06f2	0.03418631
47	0x3d75b4db	0.05998693
48	0x3df09c4b	0.117485605
49	0x3e025bf6	0.12730393
50	0x3e1c8d12	0.15288189
51	0x3d85100a	0.064972
52	0x3e28fe69	0.165033
